BU_DeepRL_Workshop_Day2/runs/bird.pt (torch, 550222 bytes, 9 tensors)

fc1.weight f4 [258, 12]
0	0x3ea31628	0.3185284
1	0xbdbbd9a4	-0.09172371
2	0xbeb5e4ce	-0.35526127
3	0xbd5c6ecf	-0.053816613
4	0x3ddfc9ce	0.10927163
5	0x3dfafde6	0.122554585
6	0x3dd2712c	0.10275492
7	0xbe84eec9	-0.2596343
8	0x3cc7476c	0.024326049
9	0x3f1be9f3	0.60903853
10	0xbe07fad0	-0.13279271
11	0x3e1bf44e	0.15229914
12	0x3dfe0563	0.12403371
13	0x3e5e568d	0.21712704
14	0x3d6594d6	0.056050144
15	0x3e46d51a	0.1941723
16	0xbda90ffa	-0.082550004
17	0x3e0a1b45	0.13486965
18	0x3e670023	0.22558646
19	0xbe1c868b	-0.15285699
20	0xbda05812	-0.07829298
21	0x3e3aa70c	0.18227786
22	0x3e217259	0.15766276
23	0xbe5de354	-0.2166875
24	0xbe2a5b32	-0.16636351
25	0xbd53800f	-0.051635798
26	0xbe2e19f2	-0.17002085
27	0xbd68fd88	-0.05688241
28	0x3da315e1	0.079631574
29	0xbe3c89c5	-0.1841193
30	0x3d2e92a2	0.04262031
31	0xbd6fdcc2	-0.05856014
32	0x3e3774cc	0.17915648
33	0x3eaadb89	0.33370617
34	0x3bed1ddb	0.007236225
35	0xbdee3155	-0.11630503
36	0x3e42f60e	0.19039175
37	0x3d88567c	0.066571206
38	0x3da0cd2f	0.07851636
39	0xbea885e8	-0.32914662
40	0xbe8d184d	-0.27557603
41	0xbced433d	-0.028962726
42	0xbdbf290a	-0.093339995
43	0xbe22cc0a	-0.15898147
44	0x3e3e8bc0	0.18607998
45	0x3e8b8f94	0.2725798
46	0xbd2b62b9	-0.041842196
47	0xbe178a2b	-0.147988
48	0xbf005815	-0.501344
49	0xbe91f496	-0.28506917
50	0x3e4c122f	0.19928811
51	0xbe8ea089	-0.27856854
52	0xbe5b323a	-0.21405879
53	0x3e6bd3f9	0.2303008
54	0x3e91c9cf	0.2847428
55	0x3d347e09	0.04406551
56	0xbe0ac63e	-0.13552186
57	0x3d5a83f4	0.053348497
58	0xbd464a26	-0.048410557
59	0x3e6e585c	0.23275894
60	0x3e850023	0.25976667
61	0x3e80b81b	0.2514046
62	0x3d8e906d	0.06961141
63	0xbcd33d8f	-0.02578619
64	0x3e62bd9c	0.22142643
65	0x3e92a43a	0.2864092
66	0x3e2ed98f	0.1707518
67	0x3e32c572	0.17458132
68	0xbe442947	-0.19156371
69	0xbf770c83	-0.96503466
70	0x3be91fcf	0.0071143876
71	0x3e1d3823	0.15353446
72	0x3e6766a5	0.2259775
73	0x3e196c14	0.14982635
74	0x3d923f12	0.07140936
75	0x3e7f78cd	0.24948426
76	0x3dcc7ae9	0.09984381
77	0x3e234101	0.15942766
78	0xbe458634	-0.19289476
79	0xbcba4eba	-0.022742618
80	0x3de64ba3	0.11244895
81	0x3ec69fe7	0.3879387
82	0xbdc54595	-0.09632412
83	0xbe9f091d	-0.3106164
84	0x3d4c30e1	0.049851302
85	0x3d26202f	0.040558036
86	0x3dfb2b9e	0.12264179
87	0xbd9ae4ff	-0.07563209
88	0x3d0a9a16	0.033838354
89	0xbc23ada0	-0.009990126
90	0x3e457848	0.19284165
91	0x3e1be9c8	0.15225899
92	0x3d8b9336	0.06815188
93	0xbf2e7de4	-0.68160844
94	0xbe9fa54f	-0.31180808
95	0xbe5e6475	-0.21718009
96	0xbe538c31	-0.20658948
97	0x3a12ae1f	0.0005595404
98	0xbdca88c4	-0.09889367
99	0x3d6f05de	0.058355205
100	0xbea2b030	-0.31775045
101	0x3e2b358b	0.16719644
102	0x3debf8b4	0.11522046
103	0x3dab8899	0.08375663
104	0xbe71ef47	-0.23626433
105	0x3e7696ee	0.24081013
106	0xbdef6c0a	-0.11690529
107	0x3daaf3be	0.083472714
108	0x3d780048	0.060547143
109	0x3e8267a0	0.25469685
110	0xbe7b1cb9	-0.24522676
111	0x3e453748	0.1925937
112	0xbe32b736	-0.17452702
113	0xbe7a4e31	-0.2444389
114	0xbe623178	-0.22089183
115	0xbe0528ed	-0.13003893
116	0xbdd62a56	-0.10457294
117	0x3d280360	0.041018844
118	0xbdf91802	-0.12162782
119	0x3e195c12	0.14976528
120	0xbe4065b2	-0.18788794
121	0x3c3de8aa	0.011591116
122	0x3e41dfc8	0.18933022
123	0xbc88070a	-0.016604919
124	0xbdec82d6	-0.115483925
125	0x3e1d2b6a	0.15348592
126	0xbe7320f8	-0.23743045
127	0xbea21de5	-0.31663433
128	0x3dff7093	0.12472644
129	0xbf20f989	-0.6288076
130	0x3e09f997	0.13474117
131	0xbdd018ab	-0.10160955
132	0xbee5b8f1	-0.44867662
133	0x3e87b9ca	0.26508933
134	0xbd71964c	-0.058981225
135	0xbea81246	-0.32826442
136	0xbad8e4ea	-0.0016547714
137	0x3db16cfa	0.08663364
138	0x3cf31f58	0.029678032
139	0xbeacaedc	-0.33727157
140	0x3e7a5785	0.24447449
141	0xbefcbf82	-0.4936486
142	0xbc181ff1	-0.009284959
143	0xbcdcf662	-0.026972953
144	0x3d41a7f0	0.0472793
145	0xbe84aa75	-0.25911298
146	0x3e30f67a	0.17281523
147	0x3e0859b6	0.13315472
148	0x3d644d08	0.055737525
149	0xbdb40996	-0.08790891
150	0xbe5dca77	-0.21659265
151	0xbe522f42	-0.2052584
152	0xbe69bed2	-0.22826698
153	0x3e832444	0.25613606
154	0x3da5fd24	0.08104923
155	0x3e5a0d60	0.21294165
156	0xbe52d7a6	-0.20590076
157	0xbe1c42fa	-0.15259925
158	0x3dd89351	0.105749734
159	0x3e4b2336	0.1983765
160	0x3ad58bb0	0.001629224
161	0x3e208831	0.15676953
162	0x3df1c80c	0.11805734
163	0xbd68ef23	-0.056868684
164	0xbb79ad9e	-0.0038097869
165	0x3f42d341	0.761036
166	0x3e306464	0.17225796
167	0xbd3e514a	-0.046464242
168	0xbe329dc5	-0.17442997
169	0xbe17eddc	-0.1483683
170	0xbe813624	-0.2523662
171	0x3e8b90be	0.27258867
172	0xbda8a110	-0.08233845
173	0x3e19e78c	0.15029734
174	0x3e6cfac7	0.23142539
175	0xbd9e6f1e	-0.07736038
176	0xbe01baa2	-0.12668851
177	0x3e40c687	0.18825732
178	0x3e95aa0f	0.29231307
179	0xbe133448	-0.14375412
180	0xbdde0b71	-0.10842026
181	0x3e4377df	0.19088696
182	0x3e62b722	0.22140172
183	0xbeb37381	-0.3504906
184	0x3e8b76d0	0.27239084
185	0xbd370f24	-0.044692174
186	0xbd4a6e51	-0.049421612
187	0xbe9c45b6	-0.30521935
188	0x3e7208ae	0.23636124
189	0x3eb3891c	0.35065544
190	0x3dc83c22	0.097770944
191	0xbe383c9e	-0.17991874
192	0xbd774b65	-0.060374636
193	0x3daec8bc	0.08534381
194	0x3ea173d1	0.31533673
195	0xbdc7658f	-0.09736168
196	0xbdb4823d	-0.088139035
197	0x3c0c35ef	0.008557781
198	0x3e3ad43d	0.18245025
199	0x3e0db682	0.13839152
200	0xbd4d6dcb	-0.050153535
201	0xbecca9a8	-0.39973187
202	0xbdb2a993	-0.0872375
203	0x3e50e0da	0.20398274
204	0xbe8c1f0a	-0.2736743
205	0xbe9a4ccf	-0.30136725
206	0xbe8a880d	-0.27056924
207	0xbdeb1c11	-0.114799626
208	0x3d951085	0.072785415
209	0xbda22cc0	-0.07918692
210	0x3c9ede04	0.019392975
211	0xbebcab20	-0.36849308
212	0x3ea503d0	0.3222947
213	0xbba09591	-0.004900642
214	0xbe90afbc	-0.28259075
215	0x3d36e622	0.044653066
216	0xbdca2063	-0.098694585
217	0x3d0db0cf	0.034592446
218	0x3e25f36e	0.16206142
219	0x3b83c0df	0.0040207948
220	0xbe7f0752	-0.24905136
221	0xbdff7fdd	-0.1247556
222	0x3dc8911a	0.09793301
223	0xbea3ea75	-0.32014814
224	0x3e655f7a	0.22399703
225	0xc008985b	-2.134299
226	0xbe8d9d72	-0.27659184
227	0xbe2a4a36	-0.16629872
228	0xbe819992	-0.25312477
229	0x3e0eefe0	0.13958693
230	0x3de09ed2	0.109677926
231	0xbe225851	-0.15854003
232	0x3e946754	0.28985083
233	0x3e9022d3	0.2815157
234	0xbe4f031b	-0.20216028
235	0xbcb3c1ec	-0.021943055
236	0xbe64ea22	-0.2235494
237	0x3e9a8484	0.30179226
238	0x3de0932b	0.1096557
239	0xbd9250fb	-0.07144352
240	0x3e8d9998	0.27656245
241	0xbec92048	-0.3928244
242	0xbe885900	-0.26630402
243	0x3d7dca22	0.061960347
244	0xbe0c6fa3	-0.13714461
245	0xbc4d29bf	-0.01252216
246	0x3e865c9b	0.26242527
247	0xbe9bbfdd	-0.30419818
248	0xbe6e95c9	-0.23299326
249	0x3efd926f	0.49525782
250	0x3d4d5464	0.05012931
251	0x3df2b2f5	0.118505396
252	0x3ea8f313	0.3299795
253	0xbea3cb4f	-0.3199105
254	0xbe9c17d9	-0.30486944
255	0x3e9fdb74	0.31222117

fc1.bias f4 [258]
0	0xbe977dd0	-0.29588175
1	0xbdcfe05b	-0.10150214
2	0xbb918580	-0.0044409633
3	0x3e0e38df	0.13888882
4	0x3d63b8e8	0.055596262
5	0xbe15cc5b	-0.14628737
6	0xbe7d3715	-0.24728043
7	0xbe8a4147	-0.27002928
8	0x3c7ff957	0.015623412
9	0xbe4fa5aa	-0.2027804
10	0x3e4161bc	0.18884939
11	0x3e57d4ef	0.21077321
12	0xbe56586f	-0.20932172
13	0xbe69701d	-0.22796674
14	0x3d8ef5de	0.06980489
15	0x3c1c5188	0.009540923
16	0xbe91a839	-0.28448656
17	0xbdfa6de6	-0.12227993
18	0xbe7a055b	-0.24416105
19	0x3dbdea6b	0.09273227
20	0xbdab86f7	-0.08375352
21	0xbe79bfcf	-0.24389575
22	0xbdba110e	-0.09085284
23	0x3e31f71b	0.1737942
24	0x3d18c7c8	0.0372999
25	0xbe4c0f14	-0.19927627
26	0x3e688d52	0.2271016
27	0x3e33f389	0.1757337
28	0x3e4969ef	0.19669317
29	0x3e19784c	0.14987296
30	0x3e66c5ce	0.22536394
31	0x3e0a053f	0.13478564
32	0x3db23b61	0.08702732
33	0xbe17b289	-0.148142
34	0x3e21cf2f	0.1580169
35	0x3e5ca070	0.21545577
36	0xbe7936f2	-0.24337366
37	0xbe8642da	-0.2622288
38	0x3e89e1d6	0.26930112
39	0xbe7baded	-0.24578066
40	0x3e87bede	0.26512808
41	0xbdc65b18	-0.096853435
42	0xbe85bdac	-0.2612127
43	0x3c1720fc	0.009224173
44	0x3c012f24	0.007884774
45	0x3c43ca98	0.011950158
46	0xbe821651	-0.2540765
47	0xbe0d810f	-0.13818763
48	0x3d86592b	0.06559976
49	0xbddc139f	-0.1074593
50	0xbd85e8cb	-0.06538542
51	0xbe19f284	-0.15033919
52	0xbe576eb2	-0.2103832
53	0xbe54dd1b	-0.2078747
54	0x3d7f3112	0.062302656
55	0x3e653e38	0.22387016
56	0xbd402ef0	-0.046919763
57	0xbded9d1e	-0.11602233
58	0x3d1f2d2c	0.03886144
59	0x3e49e7ae	0.19717285
60	0x3d8fecad	0.07027564
61	0xbce1f1c0	-0.027581096
62	0x3de1abb0	0.11019075
63	0x3da8eb18	0.082479656
64	0xbe8b225a	-0.27174646
65	0xbd118c23	-0.035534035
66	0xbe02d9e9	-0.12778439
67	0xbd0db9dc	-0.034601077
68	0x3dbc36da	0.091901496
69	0x3d8049a7	0.06264048
70	0xbdaea239	-0.08527035
71	0xbc4e592f	-0.012594505
72	0xbe696271	-0.22791459
73	0xbe800048	-0.25000215
74	0xbe80e201	-0.25172427
75	0xbe6ba537	-0.23012243
76	0xbd4f97da	-0.050681926
77	0x3e59dcad	0.21275587
78	0x3c94f24b	0.01818194
79	0x3e85acb1	0.26108316
80	0xbe533f12	-0.20629528
81	0x3d4e2da7	0.050336506
82	0x3e3a1e83	0.18175702
83	0x3dcb5213	0.09927764
84	0x3e36c786	0.1784955
85	0xbe4bdf0e	-0.19909307
86	0x3e1f979f	0.15585183
87	0x3e873cac	0.26413476
88	0x3c986a00	0.018605232
89	0x3e61c257	0.22046791
90	0xbe80346a	-0.2503999
91	0x3d853361	0.065039404
92	0xbd63a8cc	-0.0555809
93	0xbe24f727	-0.16109906
94	0x3e615130	0.22003627
95	0xbeac722b	-0.33680853
96	0xbcc2028a	-0.023682851
97	0x3e93d6e5	0.2887489
98	0xbb5d315f	-0.0033751351
99	0xbe85e91a	-0.26154405
100	0xbd044c68	-0.03229943
101	0xbcd60ae1	-0.026128234
102	0xbd0e5d44	-0.034756914
103	0xbe918775	-0.28423658
104	0x3e18c594	0.1491912
105	0x3e3dff88	0.18554509
106	0x3e80924a	0.2511161
107	0xbdfe3b10	-0.12413609
108	0xbe427905	-0.18991478
109	0x3cf64466	0.030061912
110	0x3d70c355	0.058780033
111	0x3e091169	0.13385548
112	0x3dbced65	0.09224967
113	0x3b7c1e24	0.0038470114
114	0xbe10fbf4	-0.14158612
115	0x3cd36f2a	0.025809843
116	0x3da01de8	0.07818204
117	0xbe3d0b1e	-0.18461272
118	0xbe8d2838	-0.27569747
119	0x3d96ffb1	0.07372988
120	0x3d74ee34	0.05979748
121	0x3e2aa161	0.16663124
122	0xbe66bbc0	-0.22532558
123	0x3e2d3786	0.16915712
124	0x3e8e66cd	0.27812806
125	0x3e228946	0.15872678
126	0x3d607c14	0.05480583
127	0xbd9c9f5a	-0.076475814
128	0xbe525c08	-0.2054292
129	0x3d861717	0.06547373
130	0x3de9d679	0.114178605
131	0x3da9c9e2	0.08290459
132	0xbdcb59f2	-0.09929265
133	0xbe697379	-0.22797956
134	0xbeb4eac4	-0.35335362
135	0x3e6082d7	0.21924911
136	0x3de61115	0.11233727
137	0x3dbe9942	0.09306575
138	0x3caf1ed1	0.021377
139	0x3e72df19	0.23717918
140	0xbd5e12ce	-0.054217152
141	0xbe2c31b4	-0.16815835
142	0x3d2662d0	0.04062158
143	0xbe536f2b	-0.20647876
144	0x3da72f6d	0.081633426
145	0xbe31d4aa	-0.17366281
146	0x3e52ac10	0.20573449
147	0xbde58964	-0.11207846
148	0xbdeb7196	-0.11496274
149	0xbdb0780b	-0.086166464
150	0x3e1c80df	0.15283535
151	0xbd76d4c0	-0.060261488
152	0xbe0001bb	-0.1250066
153	0x3e09cb6e	0.13456509
154	0x3e8452e7	0.258445
155	0xbdb9352d	-0.090433456
156	0x3dfe1a7b	0.124073945
157	0x3e0b6c99	0.13615645
158	0xbe2069f0	-0.15665412
159	0x3d5d38a6	0.054009102
160	0x3b87f86f	0.0041494886
161	0xbe8ded76	-0.2772023
162	0x3e557a73	0.20847492
163	0xbe4203a1	-0.18946697
164	0x3e323545	0.17403133
165	0x3d0f2b23	0.034953248
166	0x3d11c719	0.035590265
167	0x3c804000	0.015655518
168	0x3ab6a25d	0.0013933886
169	0xbe84264d	-0.2581047
170	0x3cec2e81	0.028830769
171	0x3e1e282d	0.15445013
172	0x3e2364e1	0.15956451
173	0x3e6a6241	0.22889043
174	0xbd4c8e24	-0.049940243
175	0x3db19bc3	0.08672287
176	0xbdea5b80	-0.114432335
177	0xbe61b896	-0.2204307
178	0x3da30560	0.079600096
179	0x3dc8bcb4	0.09801617
180	0xbe173947	-0.14767943
181	0x3e5ca00a	0.21545425
182	0xbe8b5eb5	-0.27220693
183	0xbe884fed	-0.2662348
184	0x3e238786	0.15969667
185	0x3e8b8f2e	0.27257675
186	0xbdcfd995	-0.10148922
187	0xbe57072c	-0.2099883
188	0xbc323a8e	-0.010878218
189	0x3d6f1c83	0.0583768
190	0xbe0d600f	-0.13806175
191	0x3e7043c0	0.23463345
192	0xbe81d396	-0.2535674
193	0x3e004ecc	0.12530059
194	0x3e658371	0.22413422
195	0x3ded3a9f	0.11583447
196	0xbe0ff47a	-0.14058104
197	0xbe24fa4a	-0.16111103
198	0xbe0abce3	-0.13548617
199	0x3e7d6cd3	0.24748544
200	0xbdea0e47	-0.114285044
201	0x3e554130	0.20825648
202	0xbe10662f	-0.1410148
203	0x3dc0a8c6	0.09407191
204	0xbe5eaa48	-0.21744645
205	0x3cb4fb1c	0.022092395
206	0x3cc04d69	0.023474412
207	0x3d6e6f1a	0.058211423
208	0x3c63e3ca	0.01390929
209	0xbe68e035	-0.22741778
210	0xbe056d0b	-0.13029878
211	0xbe989a47	-0.29805204
212	0x3e7a39d3	0.2443612
213	0xbe7c08be	-0.2461271
214	0x3d780e1f	0.060560342
215	0x3e924065	0.28564754
216	0x3e90b17e	0.28260416
217	0x3ddc4076	0.107544824
218	0xbde0c8ae	-0.109757766
219	0x3e599d3e	0.2125139
220	0x3dd56a9b	0.10420724
221	0x3e646c45	0.22306927
222	0x3d5c62e6	0.053805254
223	0xbe821f20	-0.25414371
224	0xbc868b72	-0.016423915
225	0x3d8706d6	0.06593101
226	0xbe6784cf	-0.22609256
227	0x3ddf8f86	0.10916047
228	0xbdc710ce	-0.09720002
229	0xbe64fa96	-0.22361216
230	0x3e857799	0.26067808
231	0x3c1d20b1	0.009590314
232	0x3dd5132e	0.10404049
233	0xbd34f329	-0.044177208
234	0x3e2a02ff	0.16602705
235	0x3e209a50	0.15683866
236	0xbc0c5aec	-0.008566599
237	0x3d779078	0.06044051
238	0xbdb767b5	-0.089553274
239	0xbdac86c3	-0.08424141
240	0xbe57fda5	-0.21092851
241	0xbd34dc50	-0.04415542
242	0xbe0b4f68	-0.1360451
243	0x3c306bda	0.010767901
244	0x3ea8f3ec	0.32998598
245	0x3e07d2da	0.13264027
246	0xbe282b3c	-0.16422743
247	0xbe10a197	-0.14124142
248	0xbe88c857	-0.26715347
249	0x3aa1b325	0.0012336714
250	0x3e0d18f5	0.13779052
251	0x3d0c8b07	0.034312274
252	0x3c1b7c64	0.009490106
253	0xbe5b471b	-0.21413843
254	0xbe4df112	-0.20111492
255	0x3d74841d	0.059696306

fc1_value.weight f4 [256, 258]
0	0x3c944b2f	0.018102257
1	0x3d27c080	0.040955067
2	0x3c6804b3	0.014161277
3	0xbc97e368	-0.018541053
4	0x3c69879f	0.014253526
5	0x3d04bc0e	0.032405905
6	0xbd142553	-0.036168408
7	0xbabb3c7c	-0.0014284994
8	0x38985090	7.262931e-05
9	0xbd04da24	-0.032434598
10	0x3cde2d8b	0.027121326
11	0xbcd8ca85	-0.026463756
12	0x3cb6d284	0.022317179
13	0xbd77baa4	-0.06048073
14	0x3ccf08ce	0.025272753
15	0xbc8f71f8	-0.0175104
16	0x3c3b0de4	0.011416886
17	0xbcd69355	-0.0261933
18	0xbcb44c23	-0.022008961
19	0xbd307ade	-0.043085925
20	0x3d341352	0.043963738
21	0x3bb50970	0.0055248067
22	0xbd7698ec	-0.06020443
23	0xbb0c7aea	-0.0021435567
24	0x3cd0b6d8	0.025477812
25	0x3b932070	0.004489951
26	0xbd8ac444	-0.06775716
27	0x3d5cc2d7	0.05389675
28	0x3ccb1c1e	0.02479368
29	0x3c345405	0.01100636
30	0x3c2f76f1	0.01070951
31	0xbd21332c	-0.039355442
32	0x3d288d9b	0.04115067
33	0xbd02f663	-0.031973254
34	0x3d5bc49f	0.05365431
35	0xbc708755	-0.014680703
36	0x3d40c3a9	0.047061596
37	0xbd6a7b22	-0.057246335
38	0xbd8ebb27	-0.0696929
39	0xbc000d5c	-0.007815685
40	0x3b957288	0.0045607723
41	0x3d4284d4	0.047489956
42	0xbd2ac132	-0.04168815
43	0xbd635d2f	-0.05550879
44	0x3ce0e6d8	0.027453825
45	0x3d2109bd	0.039315928
46	0xbd278564	-0.040898696
47	0xbd6f3fc2	-0.058410414
48	0x3b9b30fb	0.0047360635
49	0x3cae63ec	0.02128788
50	0xbd76b44e	-0.060230546
51	0xbb367070	-0.0027838014
52	0x3d63887f	0.055550095
53	0xbcb426ef	-0.021991221
54	0x3d4ded38	0.050275058
55	0x3beb17cb	0.007174467
56	0xbc9502aa	-0.018189747
57	0x3a1d8ff7	0.0006010527
58	0xbceacf73	-0.028663373
59	0xbd3f706b	-0.04673807
60	0xbd78f4e9	-0.06078044
61	0x3d79d588	0.060994655
62	0xbcf7e28d	-0.030259395
63	0x3d43dc92	0.047817774
64	0xbd69c6ba	-0.057074286
65	0xbc217b4d	-0.009856057
66	0x3d3fe44d	0.046848584
67	0xbd66e8ab	-0.056374233
68	0xbb783167	-0.0037871243
69	0xbb0dc600	-0.002163291
70	0xbca81e31	-0.020522209
71	0x3d07de8b	0.033171218
72	0xbd4c50a8	-0.049881607
73	0x3cb88e4b	0.022528788
74	0x3bd0eb40	0.0063757002
75	0x3d1d09de	0.03833949
76	0xbd417e38	-0.047239512
77	0x3cd00679	0.025393711
78	0x3d56aad4	0.05240901
79	0xbd0d4eda	-0.034499027
80	0xbcb45990	-0.022015363
81	0x3a472ae6	0.000759764
82	0x3bad1dc4	0.0052830894
83	0xbd19883b	-0.037483435
84	0x3cd0b80a	0.025478382
85	0x3d40ff0c	0.04711823
86	0x3c575b7d	0.013144371
87	0x3c252d8e	0.010081662
88	0x3c9e1b0c	0.019300006
89	0xbc9f6226	-0.01945598
90	0x3d6b2ca6	0.057415627
91	0xbcb31e93	-0.021865165
92	0x3b75ac40	0.0037486702
93	0xbd16d58e	-0.036824755
94	0xbce35058	-0.027748272
95	0x3c0da5af	0.008645459
96	0xbad461d3	-0.001620347
97	0xbd8702f1	-0.06592358
98	0xbc3d54b2	-0.0115558375
99	0x3ccdca18	0.02512078
100	0xbd543b05	-0.051814098
101	0xbc55c354	-0.013047058
102	0xbc894fc8	-0.016761675
103	0xbd276caf	-0.040875133
104	0x3c249d22	0.010047229
105	0x3cd63854	0.026149906
106	0x3d013c24	0.031551495
107	0xbbc8fcd8	-0.006133657
108	0xbca70b3e	-0.020391103
109	0xbd2db383	-0.042407524
110	0x3d2a4c3b	0.041576605
111	0xbb88b40e	-0.004171855
112	0xbd7d78f7	-0.06188294
113	0x3d502b77	0.0508227
114	0x3d218cc6	0.039440893
115	0xbd443ec1	-0.04791141
116	0xbcfb6cbc	-0.030691497
117	0x3d25d100	0.04048252
118	0x3cfc0dd4	0.030768313
119	0x3d057222	0.03257955
120	0xbce6144b	-0.028085848
121	0xbc97f7fc	-0.018550865
122	0xbd59b8e3	-0.053154837
123	0x3d2becaa	0.041973747
124	0xbd640455	-0.055668194
125	0xbd25e535	-0.040501792
126	0x3c0df69c	0.008664753
127	0x3d0aba8a	0.033869304
128	0x3d094c02	0.033519752
129	0x3ce58bba	0.028020728
130	0xbc9940b8	-0.018707618
131	0x3d06b45d	0.03288685
132	0xbd05a7d9	-0.032630775
133	0xbd5a96c6	-0.053366445
134	0x3be89ac4	0.0070985276
135	0x3d66a68c	0.056311175
136	0xbcdee0b7	-0.027206762
137	0xbca06196	-0.019577783
138	0xbc68b0bb	-0.014202292
139	0xbd6b61d3	-0.05746634
140	0xbc97793f	-0.018490432
141	0xbb4def10	-0.003142301
142	0xbd76ee61	-0.06028593
143	0xbc58b2f0	-0.013226256
144	0xbd8a0b9a	-0.06740494
145	0xbc9491c0	-0.018135905
146	0x3d36a89d	0.044594396
147	0x3cb2fa2b	0.021847805
148	0x3be7ebc2	0.007077665
149	0x3b27b0ed	0.0025587634
150	0xba22e4b8	-0.00062138913
151	0xbc10d2af	-0.008839293
152	0x3d36f1b8	0.044664115
153	0xbd07361d	-0.03301059
154	0xbd872782	-0.065993324
155	0xbcc705aa	-0.024294693
156	0xbd4c8aea	-0.049937166
157	0xbcf31a58	-0.029675648
158	0xbc310e84	-0.010806683
159	0x3c86df1d	0.01646381
160	0xbd8a38b7	-0.06749099
161	0xbc2c24da	-0.010506833
162	0xbd1eb10f	-0.038743075
163	0xbd7beb62	-0.061503775
164	0x3b2d20ee	0.0026417333
165	0xbd5b2c64	-0.05350913
166	0xbc84f3f5	-0.016229609
167	0xbd1849e9	-0.03717986
168	0xbd34a410	-0.044101775
169	0xbc60337c	-0.01368415
170	0xbc577330	-0.013150021
171	0x3d4949c3	0.04914261
172	0xbd7a6bdf	-0.06113803
173	0xbd0d0c11	-0.034435336
174	0xbd3272bc	-0.04356645
175	0x3d27a1e1	0.040925864
176	0xbd23d97a	-0.040002324
177	0x3cfd4897	0.030918403
178	0x3d34131a	0.04396353
179	0xba4984c0	-0.0007687323
180	0xbcb286ce	-0.021792796
181	0xba9538f7	-0.0011384775
182	0xbd48b3bc	-0.048999533
183	0x3cd90370	0.026490897
184	0xbd40ffc2	-0.04711891
185	0x3cba247c	0.022722475
186	0xbcacca6b	-0.021092614
187	0x3d70101c	0.058609113
188	0xbd149b77	-0.036281075
189	0x3ccf53d0	0.02530852
190	0xbcb1a143	-0.02168334
191	0xbc693187	-0.014233
192	0x3d0205fc	0.03174399
193	0x3b014f04	0.0019730935
194	0x3d0adb42	0.033900507
195	0xbd5cf384	-0.053943172
196	0x3d10739c	0.035266504
197	0x3b8e8670	0.0043495223
198	0xbd1a4ce6	-0.037670992
199	0x3cca4229	0.02468975
200	0xbcffa7de	-0.031207975
201	0x3d16a04a	0.036773957
202	0xbd3bbb89	-0.045833144
203	0xbd5becba	-0.053692557
204	0xbd5bbbe0	-0.05364597
205	0xbd8024d8	-0.062570274
206	0x3b24d59f	0.0025151742
207	0xbc8690a4	-0.016426392
208	0x3cb2a9ba	0.021809448
209	0x3c04741d	0.008084324
210	0x3d4fc968	0.050729185
211	0xbcd07fb0	-0.025451511
212	0xbd4906d5	-0.04907878
213	0xbc5de1bc	-0.013542589
214	0xbd6f97eb	-0.05849449
215	0xbd1d3587	-0.038381126
216	0xbcd7d97e	-0.026348826
217	0x3d70a741	0.058753256
218	0x3c2a5ef8	0.010398619
219	0xb9d85900	-0.0004126504
220	0xbc72e98e	-0.014826192
221	0x3d4ce097	0.050018873
222	0x3d056115	0.032563288
223	0xbc843f92	-0.016143594
224	0x3c4b1dc2	0.0123972315
225	0x3d0e75ac	0.03478019
226	0x3d16285d	0.036659587
227	0xbd3b07b8	-0.045661658
228	0xbc7f6a2a	-0.015589276
229	0xbca56c3a	-0.020193208
230	0x3c955424	0.018228598
231	0xbd125e01	-0.03573418
232	0xbc91eb2f	-0.01781234
233	0xbd64062f	-0.05566996
234	0xbd413fa0	-0.04717982
235	0xbd02a361	-0.03189409
236	0xbd6679e1	-0.056268577
237	0x3c27e160	0.010246605
238	0xbc7fb958	-0.015608154
239	0xbbab5d48	-0.005229626
240	0x3d429254	0.04750283
241	0x3d09b046	0.033615373
242	0x3cbaf0a8	0.022819832
243	0xbd6323e2	-0.055454142
244	0xbd247c80	-0.040157795
245	0xbc003c8a	-0.007826934
246	0xbc379913	-0.011205929
247	0xbd091d2e	-0.033475094
248	0x3c19a048	0.009376593
249	0x3ca550cf	0.020180134
250	0xbd13edca	-0.036115445
251	0x3d241cd0	0.04006654
252	0x3c9307d1	0.017948063
253	0xbc938245	-0.018006453
254	0x3be5ac30	0.0070090517
255	0x3d476151	0.048676793

fc1_value.bias f4 [256]
0	0xbc0373c7	-0.008023209
1	0x3d925a15	0.07146088
2	0x3d878734	0.06617585
3	0x3d1ad442	0.03780008
4	0x3d87696f	0.06611907
5	0xbc9253a7	-0.017862154
6	0x3d56d262	0.05244673
7	0x3d72e7a2	0.059302934
8	0x3d188ea7	0.03724542
9	0x3db0b93e	0.08629082
10	0x3d5a28e0	0.053261638
11	0xbcd1a8b5	-0.025593141
12	0x3c76ad8e	0.015056027
13	0x3d93be04	0.07213977
14	0xbc896fb8	-0.016776904
15	0x3cb4ce58	0.022071049
16	0xbd33a21c	-0.04385577
17	0xbc78e7a3	-0.015191945
18	0xbc72b5c0	-0.01481384
19	0xbc0af402	-0.008481028
20	0xbcccd8e5	-0.025005767
21	0x3b77584e	0.0037741843
22	0xbd7e24ee	-0.062046938
23	0x3c499b31	0.012305067
24	0x3d48fd70	0.04906982
25	0xbc44c897	-0.012010715
26	0xbdd080a2	-0.10180785
27	0x3d5754df	0.052571174
28	0x3d4dafd3	0.050216507
29	0x3b2a0ae0	0.0025946423
30	0x3d17a355	0.037021
31	0x3d7dc521	0.061955575
32	0x3b7604c8	0.003753947
33	0xbc40746c	-0.011746507
34	0x3d706fce	0.058700375
35	0xbd896115	-0.0670797
36	0x3c6ffb42	0.014647307
37	0xbd47ddeb	-0.04879562
38	0x3d14ef43	0.03636099
39	0x3d8d5494	0.069008976
40	0x3ca07f65	0.019591996
41	0x3d05df23	0.032683503
42	0x3d13d575	0.03609224
43	0x3b86d7de	0.004115089
44	0x3c460974	0.012087215
45	0x3cd405a5	0.025881598
46	0x3ca5c8f2	0.02023742
47	0x3c4a7d06	0.0123589095
48	0xbd020426	-0.031742238
49	0xbd313529	-0.043263588
50	0x3c2878aa	0.010282675
51	0xbd041a97	-0.03225192
52	0x3da48626	0.08033399
53	0xbd33bb50	-0.043879807
54	0x3c80513d	0.015663737
55	0xbcfa8d6c	-0.030585013
56	0xbcc0b543	-0.023523932
57	0x3d914a8f	0.07094299
58	0xbce84fd4	-0.028358378
59	0x3b9fa392	0.004871794
60	0x3d3b9f37	0.045806136
61	0x3d63896d	0.05555098
62	0x3ce73316	0.028222602
63	0x3d832298	0.064030826
64	0x388dbf15	6.758996e-05
65	0xbd176b9f	-0.03696787
66	0xbc5c5fbd	-0.01345056
67	0x3c823d22	0.015898291
68	0xbb86d13b	-0.0041142977
69	0x3d4471c6	0.047960065
70	0x3ccdfd16	0.025145095
71	0xbd769669	-0.060202036
72	0xbcb7b89f	-0.022426901
73	0x3cb42af3	0.021993136
74	0x3db23abb	0.08702608
75	0xbd156bc3	-0.036479723
76	0x3ca37fbb	0.019958368
77	0xbc8bdb21	-0.017072262
78	0x3dbdf526	0.09275274
79	0x3c2ab1d6	0.010418376
80	0x3cd0ac92	0.025472913
81	0x3d70b8ed	0.05877011
82	0x3c1f345c	0.009717073
83	0x3d470f2d	0.048598457
84	0x3c885766	0.016643237
85	0xbd85a3ff	-0.065254204
86	0xbc5343b8	-0.012894563
87	0x3d29adf0	0.041425645
88	0xbbf73c45	-0.0075450265
89	0x3d7aab69	0.061198626
90	0x3d92f14b	0.07174929
91	0xbbfb9afb	-0.007678387
92	0xbb8ffdf6	-0.004394288
93	0x3ca3bb6b	0.019986829
94	0x3cce1200	0.025155067
95	0xbd3182fa	-0.0433378
96	0xbbf550e8	-0.0074864514
97	0x3d88d658	0.06681508
98	0x3d188de5	0.037244696
99	0xbcf75680	-0.030192614
100	0xbd7ecda5	-0.062207837
101	0xbc2563dc	-0.010094609
102	0x3c6db51e	0.014508514
103	0x3d6bf000	0.05760193
104	0xbd05d972	-0.032678075
105	0xbd6be417	-0.05759057
106	0xbd07d955	-0.03316625
107	0xbd4865cd	-0.04892521
108	0xbcbb73e2	-0.022882406
109	0x3d1b5066	0.03791847
110	0xbd9f8447	-0.07788902
111	0x3d24bbb9	0.04021809
112	0xbcfe67b4	-0.031055309
113	0x3cdd2245	0.02699388
114	0x3d926dd4	0.07149854
115	0xbd8d5890	-0.069016576
116	0x3d20a3d3	0.039218735
117	0xbd70116f	-0.058610376
118	0xbd5ba5a2	-0.053624757
119	0x3d9e2fa1	0.07723928
120	0x3d0f2d26	0.034955166
121	0x3b98f7a6	0.004668194
122	0xbcc72232	-0.024308298
123	0x3cccc0ab	0.024994215
124	0x3d7a344a	0.061085023
125	0x3cfb8d7b	0.030707112
126	0x3cc5198b	0.024060031
127	0x3d19d07c	0.03755234
128	0x3c999755	0.018748919
129	0x3ccacdef	0.0247564
130	0x3d55008c	0.052002475
131	0xbcc04146	-0.023468625
132	0xbcc672f7	-0.024224741
133	0x3bca3deb	0.006171932
134	0x3d0158da	0.031578876
135	0xbced418c	-0.02896192
136	0x3b630c3d	0.0034644746
137	0xbd51960a	-0.05116848
138	0xbd1ca100	-0.03823948
139	0x3d17c6c9	0.03705481
140	0x3cb22844	0.021747716
141	0xbd42f495	-0.047596533
142	0x3d19c6be	0.03754305
143	0xbdc9e78a	-0.09858616
144	0xbd4729b1	-0.048623744
145	0x3d463394	0.048389032
146	0xbd776581	-0.060399536
147	0x3d5deca8	0.05418077
148	0x3cbca573	0.023028111
149	0xbd54b04c	-0.051925942
150	0x3d91df4c	0.071226686
151	0xbd21fa78	-0.039545506
152	0xbbdbd9c8	-0.006709311
153	0x3d5a457c	0.05328892
154	0x3c96fe41	0.018431785
155	0x3d3001a8	0.04297033
156	0x3d13bd67	0.0360693
157	0x3c5483b4	0.012970854
158	0x3c7659bb	0.015036042
159	0x3c1d8372	0.009613859
160	0x3d1ded5e	0.03855645
161	0xbb032852	-0.0020013046
162	0xbd789065	-0.06068458
163	0xbd5b2a5a	-0.053507186
164	0x3c7b11e2	0.015324088
165	0xbbeced53	-0.0072304397
166	0xbd823336	-0.06357424
167	0x3d2953da	0.041339733
168	0x3d264302	0.040591247
169	0xbc9e165a	-0.019297767
170	0x3db2254d	0.08698521
171	0x3c2b5513	0.010457295
172	0xbc4add2c	-0.012381833
173	0x3ce9d22d	0.028542602
174	0xbb97f790	-0.004637666
175	0xbd66a275	-0.056307275
176	0xbd15e5f8	-0.03659627
177	0x3d38f873	0.045158815
178	0xbcbbd23e	-0.0229274
179	0xbc9981c4	-0.018738635
180	0xbd3e7adc	-0.046503887
181	0xbd5cf630	-0.05394572
182	0x3d9bbe67	0.07604676
183	0x3cb6a992	0.022297654
184	0x3d41a30f	0.047274645
185	0xbd5940a3	-0.053040158
186	0x3c56b238	0.013104014
187	0x3d870c6f	0.065941684
188	0xbc640373	-0.013916838
189	0x3d20289a	0.03910122
190	0xbd49f803	-0.049308788
191	0x3d85e187	0.065371566
192	0x3c18413b	0.009292896
193	0x3d59b55a	0.053151466
194	0xbd005d0c	-0.031338736
195	0xbd1e84a2	-0.038700707
196	0xbcf424de	-0.029802736
197	0x3ccca5b0	0.02498135
198	0xbd518f44	-0.05116202
199	0x3d8d1ef0	0.068906665
200	0x3cd5f757	0.026118917
201	0x3d741a45	0.059595365
202	0x3d04c14c	0.032410905
203	0xbc6be71e	-0.014398364
204	0x3bdfdd1a	0.0068317773
205	0xbd5c0599	-0.053716276
206	0x3d856deb	0.06515106
207	0xbc0fac05	-0.00876904
208	0xbc561455	-0.013066371
209	0xbcbada19	-0.022809075
210	0xbd44c4e6	-0.04803934
211	0x3d8bd1c4	0.06827119
212	0xbbf53a78	-0.0074837767
213	0x3d1b1751	0.037864033
214	0xbd0eb22e	-0.034837894
215	0x3d232caa	0.039837517
216	0x3da5eeaf	0.08102166
217	0x3d2df25e	0.042467467
218	0x3a97316f	0.0011535118
219	0xba7053c2	-0.00091677543
220	0x3c9d18dd	0.019176895
221	0xbb301dc7	-0.0026873217
222	0x3d7e0d48	0.062024385
223	0xbd577fbb	-0.052612048
224	0x3ca6aad6	0.020345133
225	0x3d4467f4	0.0479507
226	0xbc89f962	-0.016842548
227	0x3c8b5e80	0.017012835
228	0x3b8a9ac8	0.004229877
229	0x3d16585b	0.036705356
230	0x3b022ece	0.0019864324
231	0xbd05b496	-0.032642923
232	0xbce9893e	-0.028507825
233	0x3d9063ab	0.0705026
234	0xbbab7160	-0.005232021
235	0xbd00c43c	-0.031437144
236	0xbd26e949	-0.04074982
237	0xbd649891	-0.05580956
238	0xbb665c4c	-0.0035150228
239	0xbcc7a0e6	-0.024368715
240	0x3d0bb2ab	0.034105938
241	0xbda123c6	-0.07868151
242	0x3d22227f	0.03958368
243	0x3d97b087	0.07406717
244	0xbb75b780	-0.0037493408
245	0xba60eb59	-0.00085799914
246	0xbd6bda32	-0.057581134
247	0x3d3949ec	0.045236513
248	0x3c96a345	0.0183884
249	0xbd835861	-0.06413341
250	0x3dc33ef2	0.0953349
251	0xbc974b08	-0.018468395
252	0x3cb1fcfe	0.021727081
253	0xbcc16d79	-0.023611771
254	0x3ca3cfd0	0.019996554
255	0xbce12f91	-0.027488502

value.weight f4 [1, 256]
0	0x3c046225	0.00808004
1	0xbd98889a	-0.0744793
2	0x3da22365	0.07916907
3	0xbe865c9f	-0.2624254
4	0x3ed8104b	0.4219993
5	0xbe2c5470	-0.16829085
6	0x3dc220bb	0.09478899
7	0x3ea5fea0	0.32420826
8	0xbd8e2f38	-0.069426
9	0xbe6184fb	-0.22023384
10	0xbd018985	-0.03162529
11	0xbd618967	-0.055062678
12	0xbc576077	-0.013145558
13	0x3e8f6a34	0.28010714
14	0x3f2b9390	0.6702204
15	0x3e17569e	0.14779136
16	0x381c1800	3.721565e-05
17	0xbcbb76d2	-0.022883806
18	0xbd85f69a	-0.06541176
19	0xbd40c3e1	-0.047061805
20	0xbd0447d6	-0.03229507
21	0xbe37eb30	-0.1796081
22	0x3cb4e8b3	0.022083616
23	0x3d1b84cb	0.037968438
24	0xbd40d314	-0.0470763
25	0xbc4422d6	-0.011971196
26	0x3eaad39c	0.3336457
27	0x3e76067e	0.24025914
28	0xbe188685	-0.14895065
29	0xbc597d58	-0.013274513
30	0xbea4b381	-0.321682
31	0xbe8541b9	-0.26026705
32	0xbd1d05e4	-0.038335696
33	0x3e0996c1	0.13436414
34	0xbd80a72d	-0.06281886
35	0x3d0babb1	0.034099285
36	0x3e8c597b	0.27412018
37	0xbeb7b47e	-0.35879892
38	0xbef28f41	-0.4737492
39	0x3e9cce15	0.30625978
40	0xbe5b3abf	-0.21409129
41	0x3dc966a0	0.09834027
42	0xbd86feff	-0.065916054
43	0xbea0f184	-0.31434262
44	0x3ed1f275	0.41005293
45	0xbcf6f826	-0.030147623
46	0xba0ea9a6	-0.00054421497
47	0xbd3bb3f9	-0.045825932
48	0x3ca68bc2	0.020330314
49	0x3a61b5b3	0.0008610144
50	0xbe9c251c	-0.30497062
51	0x3e23ddc2	0.16002563
52	0xbe885ef9	-0.26634958
53	0x3c87cbc0	0.016576648
54	0x3e9bf260	0.30458355
55	0xbce49a92	-0.027905736
56	0xbea83362	-0.32851702
57	0xbe9b6568	-0.30350804
58	0x3e280c63	0.16410975
59	0xbd28fb51	-0.0412553
60	0x3e7f746e	0.24946758
61	0xbdfe03ce	-0.124030694
62	0x3e80c530	0.25150442
63	0x3df954a5	0.12174348
64	0xbe993355	-0.29921976
65	0xbb9bd31e	-0.0047553917
66	0xbd6b10dd	-0.05738913
67	0xbe7574e5	-0.23970373
68	0x3e85a859	0.26105002
69	0xbf27be76	-0.65524995
70	0xbd9c9ef9	-0.07647509
71	0xbe956c7a	-0.29184324
72	0xbd844f32	-0.06460418
73	0xbc5f35dc	-0.013623681
74	0x3db5187f	0.08842563
75	0xbd031e08	-0.032011062
76	0xbd8fcb74	-0.070212275
77	0x3cba88a6	0.022770237
78	0xbd909646	-0.070599124
79	0x3cb379d6	0.021908682
80	0x3d33daff	0.043910023
81	0x3dcbb608	0.09946829
82	0x3db7c869	0.08973772
83	0xbd88fb0c	-0.066885084
84	0xbcb9dc6f	-0.022688119
85	0xbb8bafd0	-0.004262902
86	0x3bbb0f15	0.005708585
87	0xbe908ddb	-0.28233227
88	0x3e2a76c9	0.16646875
89	0xbd81bc0c	-0.06334695
90	0xbd6e48df	-0.058174964
91	0x3e04273d	0.12905593
92	0x3f0a002c	0.5390651
93	0x3d5d1a87	0.053980377
94	0xbe5a9530	-0.21345973
95	0xbd1f7aa2	-0.03893531
96	0xbccf1c52	-0.025282059
97	0x3d8fb218	0.070163906
98	0xbd556b37	-0.0521042
99	0x3bf8e12c	0.007595202
100	0xbc4e80a8	-0.012603916
101	0xbd6aface	-0.057368092
102	0x3dd701fc	0.10498425
103	0x3e10db01	0.14146043
104	0xbe93b6e0	-0.2885046
105	0xbd6012a2	-0.05470527
106	0x3ccd0641	0.025027396
107	0xbd00a7a5	-0.03140988
108	0xbca527f7	-0.020160658
109	0xbc1bfb16	-0.009520313
110	0xbebea88b	-0.37237963
111	0x3cc5a0a4	0.024124451
112	0xbe8fd3c2	-0.28091246
113	0xbe6a7544	-0.22896296
114	0x3e7e87d5	0.24856503
115	0x3d2acec6	0.0417011
116	0xbd7613b9	-0.060077403
117	0x3cafd81c	0.021465354
118	0xbde60b99	-0.11232681
119	0x3e0214c2	0.12703231
120	0x3c4ef968	0.012632705
121	0xbd2e61c8	-0.04257372
122	0xbef466e4	-0.4773475
123	0xbe9240d8	-0.28565097
124	0xbd5acad4	-0.05341609
125	0xbce0709c	-0.027397446
126	0x3eb0d7c5	0.3453962
127	0x3e33ef1b	0.1757168
128	0x3e0d3e17	0.13793217
129	0x3d3c2671	0.045935098
130	0x3e23b4c7	0.1598693
131	0x3e8abc1a	0.27096635
132	0xbd581261	-0.052751902
133	0xbd592a5c	-0.053018913
134	0x3d763915	0.06011303
135	0x3deefc5a	0.11669226
136	0xbe8cf9fc	-0.27534473
137	0xbc3c95b9	-0.011510306
138	0x3d1cf04e	0.03831511
139	0xbeab3a0f	-0.33442733
140	0x3cdad24b	0.026711604
141	0x3d3de748	0.046363145
142	0x3d563769	0.052298937
143	0x3e8e476a	0.2778886
144	0x3b8ff4d9	0.004393202
145	0xbe95d4a2	-0.29263788
146	0xbe88f225	-0.26747242
147	0x3d9e9a46	0.07744269
148	0x3e129730	0.14315486
149	0xbd39820b	-0.045290034
150	0x3e617cfc	0.22020334
151	0x3d5c02b1	0.053713504
152	0x3d791a76	0.06081625
153	0xbd4ab7b6	-0.049491607
154	0x3df51bf7	0.119682245
155	0xbda488c8	-0.080339015
156	0xbab06ec4	-0.0013460745
157	0xbd1115fa	-0.03542135
158	0xbe69fc3d	-0.22850128
159	0xbd0b99bf	-0.03408217
160	0x3b48a043	0.0030613102
161	0xbea155bc	-0.31510723
162	0x3c86a032	0.016433809
163	0x3d5e07ba	0.054206587
164	0xbe45103d	-0.19244476
165	0xbd575da4	-0.052579537
166	0x3f292654	0.6607411
167	0x3e028bd0	0.12748647
168	0x3b836975	0.004010374
169	0xbbd3fe4c	-0.0064695235
170	0x3e94d51b	0.29068837
171	0xbca5ac6f	-0.020223824
172	0x39bc9d8d	0.0003597554
173	0x3c193c1a	0.009352708
174	0xbd3f5aaf	-0.046717342
175	0xbd3c6a24	-0.04599966
176	0xbd288878	-0.04114577
177	0x3d1f122b	0.038835686
178	0xbd91c914	-0.07118431
179	0x3e21ad3a	0.15788737
180	0x3c78d3d8	0.015187226
181	0x3c9a4eb9	0.018836366
182	0xbd140e1a	-0.03614626
183	0x3ca9274e	0.020648625
184	0x3e235230	0.15949321
185	0x3d2f3f8a	0.042785205
186	0x3cb7b99c	0.022427373
187	0xbee284a2	-0.44241816
188	0xbe321262	-0.17389825
189	0x3df22a9d	0.11824534
190	0x3d52514f	0.051347073
191	0xbe9dd34c	-0.3082527
192	0xbc3749d5	-0.0111870365
193	0xbcb6e1c1	-0.022324445
194	0x3e45c3f0	0.19313025
195	0x3d2b3f8d	0.041808654
196	0x3d7cd4ee	0.061726503
197	0xbd470233	-0.04858608
198	0x3de22c2c	0.11043581
199	0xbd387f97	-0.045043554
200	0x3d0893a8	0.03334394
201	0xbe7a589d	-0.24447866
202	0x3da4c426	0.08045225
203	0xbe4bf2c5	-0.19916828
204	0x3d37afe7	0.044845488
205	0xbd416cd4	-0.047222927
206	0xbd27d87a	-0.040977933
207	0x3c80f61b	0.015742352
208	0x3e0edb47	0.13950835
209	0xbacc8a12	-0.0015605113
210	0xbe4a1d0c	-0.19737643
211	0xbeb12357	-0.34597275
212	0xbe941cda	-0.28928262
213	0x3d2303c6	0.03979852
214	0xbcbabdc6	-0.02279557
215	0x3f1c41d5	0.6103795
216	0xbd3041e1	-0.043031577
217	0x3d401151	0.046891514
218	0xbb787fdc	-0.0037918007
219	0xbe4caea2	-0.19988492
220	0xbd16859c	-0.036748514
221	0x3de95415	0.113929905
222	0x3e8d832b	0.27639136
223	0x3d212452	0.03934128
224	0xbd6a3b6d	-0.05718558
225	0xbe94a08e	-0.29028744
226	0x3e3b7a10	0.18308282
227	0x3e49bb41	0.19700338
228	0xbe973b3c	-0.2953738
229	0x3e879537	0.2648103
230	0xbad153b9	-0.0015970386
231	0xbd281e68	-0.041044623
232	0xbef0a0f2	-0.46997792
233	0xbce5d6ac	-0.028056465
234	0xbc0e4439	-0.008683258
235	0xbd64c21e	-0.055849187
236	0xbcacd8a9	-0.021099405
237	0xbda72096	-0.08160512
238	0x3db19d98	0.08672637
239	0xbe88e89f	-0.26739976
240	0x3dd1afdf	0.10238623
241	0xbba60e9d	-0.00506766
242	0xbe5b8373	-0.21436863
243	0x3e19ce5b	0.15020125
244	0xbd141236	-0.03615018
245	0x3ef06c68	0.46957707
246	0xbdb4e08a	-0.0883189
247	0xbd93ffad	-0.07226501
248	0xbd32ab8c	-0.04362063
249	0x3a7f9ecc	0.00097511406
250	0x3f356df2	0.7087089
251	0xbd6dbc00	-0.05804062
252	0xbcc18395	-0.023622314
253	0x3c4cc733	0.012498665
254	0x3eaf0bc1	0.34188655
255	0x3d953d2b	0.072870575

fc1_advantages.weight f4 [256, 258]
0	0x3d90ea1d	0.070759036
1	0x3d265fc2	0.040618666
2	0xbc8aa94c	-0.01692643
3	0x3d46a135	0.048493583
4	0x3d949a46	0.07255988
5	0x3d212e1d	0.039350618
6	0x3cc5fb7c	0.024167769
7	0x3d33148b	0.043720763
8	0xbd3bd710	-0.045859396
9	0x3c2b3238	0.010448985
10	0x3d872d37	0.06600421
11	0x3cda1d02	0.02662516
12	0x3c58c610	0.0132308155
13	0x3d106330	0.035250843
14	0x3c612943	0.013742748
15	0xbd1189e4	-0.035531893
16	0x3d21ce88	0.039503604
17	0xbcadb81b	-0.021205952
18	0x3d85d4c8	0.065347254
19	0x3d7ab49a	0.06120739
20	0xbda0521b	-0.078281604
21	0x3d83d941	0.06437922
22	0xbc3e1f60	-0.01160416
23	0xbcad9504	-0.02118922
24	0xbcb3d172	-0.021950457
25	0x3cfe3a98	0.031033799
26	0xbe60c286	-0.21949205
27	0x3d73a07d	0.059479225
28	0x3d8780df	0.06616377
29	0x3d7ddb1b	0.061976533
30	0xbc240579	-0.01001107
31	0xbd784ef5	-0.060622174
32	0x3c086c9a	0.008326674
33	0xbc8184c4	-0.015810378
34	0x3defba40	0.11705446
35	0x3d3989b6	0.045297347
36	0xbd0de388	-0.03464082
37	0xbd1dab3f	-0.03849339
38	0x3d76af24	0.06022562
39	0x3b261de0	0.0025347397
40	0xbb1b97be	-0.0023741568
41	0x39c036be	0.0003666188
42	0x3babedb0	0.0052468404
43	0x3d67475a	0.05646453
44	0x3d177cb6	0.036984168
45	0x3d1227ba	0.035682417
46	0xbbf921f8	-0.0076029263
47	0x3e473d0c	0.19456881
48	0xbd6fbe48	-0.058531076
49	0x3c9058b7	0.017620428
50	0x3e070d6f	0.13188718
51	0x3d174d4e	0.036938958
52	0x3d026152	0.031831093
53	0xbd8f11be	-0.06985806
54	0x3c923692	0.017848287
55	0x3c985652	0.018595848
56	0x3d038c35	0.032116134
57	0x3d62edde	0.05540263
58	0x3d96453c	0.07337424
59	0x3dc369db	0.09541675
60	0x3da2a8c5	0.079423465
61	0x3ce6615c	0.028122596
62	0x3ae2fc5e	0.0017317643
63	0x3d401861	0.04689825
64	0xbd70d177	-0.05879351
65	0xbce6e06c	-0.028183185
66	0xbcccb3a3	-0.024988001
67	0x3d90ed07	0.070764594
68	0x3d51137d	0.051043976
69	0xbc831d2b	-0.01600512
70	0x3ca4352b	0.020044884
71	0xbd275d68	-0.040860564
72	0xbc3a5214	-0.011372108
73	0x3d23556d	0.03987639
74	0x3d526ae4	0.05137147
75	0x3c08fb68	0.008360721
76	0x3d1aa05e	0.037750594
77	0x3db9ea79	0.09077925
78	0x3ceb9022	0.028755251
79	0x3e44f253	0.19233064
80	0x3cef4b00	0.029210567
81	0xbc8459d1	-0.016156109
82	0xbd96d716	-0.07365243
83	0xbd2dbff3	-0.042419385
84	0x3d09ebd4	0.03367217
85	0xbd3cd450	-0.046100914
86	0xbda83503	-0.08213236
87	0x3dfc458b	0.12317952
88	0x3c0c9e40	0.008582652
89	0x3d1f13ff	0.03883743
90	0x3c813188	0.015770689
91	0x3d8c6f0f	0.0685712
92	0x3d3e0556	0.046391807
93	0xbd2ef156	-0.042710625
94	0x3d48ebe3	0.049053084
95	0x3d4e0c61	0.050304774
96	0xbcb0da70	-0.021588534
97	0xbbc175e0	-0.0059039444
98	0x3cbba681	0.022906544
99	0xbd414e18	-0.047193617
100	0x3d1bdb43	0.0380509
101	0xbd164a49	-0.036691938
102	0x3da101fd	0.07861707
103	0x3d7541a8	0.059877068
104	0x3bb52dde	0.0055291494
105	0xbcf1f1a4	-0.029534169
106	0xbd535897	-0.051598158
107	0x3b553c9b	0.0032537344
108	0x3d92dc91	0.07170976
109	0x3dabef0f	0.08395206
110	0x3ccc4562	0.024935428
111	0x3d1bdb85	0.038051147
112	0x3d497617	0.049184885
113	0x3dd16112	0.10223593
114	0x3cfd10fc	0.030891888
115	0x3d6d1750	0.05788356
116	0x3d1a179c	0.037620172
117	0xbd3735b9	-0.04472897
118	0x3d06e0cb	0.032929223
119	0x3e1cad28	0.15300429
120	0x3d97f78a	0.07420261
121	0xbd603c4a	-0.054744996
122	0x3d9bca68	0.07606965
123	0x3d642613	0.055700373
124	0xbbbd41f8	-0.0057756864
125	0xbc33f1e4	-0.010982964
126	0xbc10fe6c	-0.008849721
127	0xbb9af608	-0.0047290362
128	0x3cb4a4fa	0.022051323
129	0x3def57a9	0.11686642
130	0x3d949149	0.072542734
131	0x3d8fd8ea	0.07023795
132	0x3da94048	0.08264214
133	0xbcc59710	-0.024119884
134	0x3cada843	0.021198398
135	0x3d7d0bce	0.061778836
136	0xbc8031d5	-0.015648762
137	0xbd992b08	-0.07478911
138	0x3d15d153	0.03657658
139	0x3d13513a	0.035966136
140	0x3da73abd	0.081655
141	0x3d28e8b2	0.04123754
142	0xbd1fe571	-0.03903717
143	0x3d5c68cc	0.05381088
144	0x3c6a34d0	0.014294818
145	0x3df864ac	0.12128577
146	0x3db9ad24	0.09066227
147	0xbd6bb16d	-0.057542253
148	0x3e05765f	0.13033436
149	0x3dd6e1ae	0.10492264
150	0x3d8edd73	0.06975832
151	0x3d69b8dc	0.05706106
152	0xbc557a67	-0.013029671
153	0xbb919b85	-0.004443588
154	0x3ca1885a	0.019718338
155	0x3d39ca81	0.04535914
156	0xbd04adbc	-0.03239225
157	0xbcf760fd	-0.030197615
158	0x3d82dc6c	0.063896984
159	0xbbca5a4a	-0.006175314
160	0xbd9a6fc5	-0.075408496
161	0xbcd52122	-0.026016776
162	0xbd11fae9	-0.035639677
163	0x3dac04ba	0.08399339
164	0x3d6233b4	0.05522509
165	0x3d923a4d	0.07140026
166	0x3d7d81e2	0.061891444
167	0x3db19421	0.086708315
168	0x3be2160c	0.006899601
169	0xbc6cce27	-0.014453447
170	0x3d0a9654	0.03383477
171	0x3d62d913	0.0553828
172	0xbd2ed878	-0.04268691
173	0x3de3dbda	0.11125918
174	0xbbefd6b0	-0.007319294
175	0x3d86bb60	0.06578708
176	0xbd3dd12c	-0.04634206
177	0x3c3994f9	0.011327022
178	0x3e1c7239	0.15277947
179	0x3d038535	0.032109458
180	0x3c7cc37b	0.015427466
181	0xbcdd9adb	-0.02705138
182	0xbc90b0cc	-0.017662428
183	0xbce0dee6	-0.027450036
184	0x3cb2fe0b	0.021849653
185	0x3d29051e	0.041264646
186	0x3d120df7	0.03565785
187	0xbc710a9c	-0.014712002
188	0x3e2e8682	0.17043498
189	0x3adfadc3	0.0017065335
190	0x3b92ca6f	0.0044796984
191	0x3bca3422	0.0061707655
192	0xbd3fde18	-0.046842664
193	0xbc877937	-0.016537292
194	0xbcd179a0	-0.02557069
195	0x3d7fc1b8	0.062440604
196	0xba831a69	-0.0010002378
197	0xbcd88cdc	-0.026434354
198	0x3b3eb25d	0.0029098012
199	0x3d354a0f	0.04426008
200	0xbc40f7c1	-0.011777819
201	0x3e108d43	0.14116387
202	0x3d39f704	0.045401588
203	0x3d2db8e2	0.042412646
204	0xbbcb1899	-0.0061980006
205	0x3cd682b3	0.02618537
206	0x3dc36173	0.09540071
207	0xbcd851ef	-0.026406256
208	0x3d9128ae	0.07087837
209	0x3d7d1364	0.06178607
210	0xbd4fb6ff	-0.050711628
211	0x3d2e4cc1	0.042553667
212	0x3c1c189d	0.009527353
213	0xbd67538a	-0.056476153
214	0xbaa4c20f	-0.0012570041
215	0x3c8e36a9	0.017360048
216	0x3cf46713	0.029834306
217	0x3e0f52ef	0.1399648
218	0x3ce77330	0.028253168
219	0xbce65774	-0.028117873
220	0x3cacc64a	0.021090645
221	0x3d976090	0.07391465
222	0xbe28e00e	-0.1649172
223	0x3d641f76	0.055694066
224	0x3cdce827	0.026966168
225	0x3db3485e	0.08754037
226	0x3d54119b	0.051774602
227	0x3e49dc32	0.19712904
228	0x3d98ee16	0.07467286
229	0x3c810bfc	0.015752785
230	0xbd7f0554	-0.06226094
231	0xbcc462c1	-0.02397287
232	0x3d00f201	0.031480793
233	0x3d903808	0.07041937
234	0xbc5da6e4	-0.013528559
235	0x3ce1b0c4	0.027550109
236	0x3c9d2027	0.01918037
237	0x3ceb357c	0.028712027
238	0xbc06b8fd	-0.008222816
239	0xbc2cea99	-0.010553979
240	0xbde9345b	-0.11386939
241	0xbd78115d	-0.060563434
242	0xbd5db8d3	-0.05413134
243	0xbcfa8de5	-0.030585239
244	0x3d45c37e	0.04828214
245	0x3dcacc93	0.09902301
246	0xbd4597dd	-0.04824053
247	0xbd13927e	-0.036028378
248	0x3c655528	0.013997354
249	0x3d1af4d6	0.03783115
250	0xbd39bb7c	-0.045344815
251	0x3c503e2a	0.012710134
252	0x3e658901	0.22415544
253	0x3d5f850b	0.05457024
254	0xbd5dcc43	-0.054149877
255	0x3dcafb9c	0.09911272

fc1_advantages.bias f4 [256]
0	0x3c9adb39	0.018903362
1	0x3cb77910	0.022396594
2	0xbd89c7e6	-0.06727581
3	0xbc9edb95	-0.019391814
4	0x3cc3de18	0.023909613
5	0xbc1c1041	-0.00952536
6	0x3d86c163	0.06579854
7	0x3d392213	0.04519851
8	0x3db05631	0.0861019
9	0xbd806922	-0.062700525
10	0x3dc65899	0.096848674
11	0x3d8bfc31	0.06835211
12	0x3c1d4a49	0.0096002305
13	0x3db20ca5	0.08693818
14	0x3dbdbe2d	0.09264789
15	0x3d37c58a	0.044866122
16	0x3d0e4ad4	0.03473933
17	0xbd8fe136	-0.070253775
18	0xbb100dc1	-0.0021980854
19	0xbd1a206e	-0.037628584
20	0xbd3bd45f	-0.04585683
21	0x3d4fcb9d	0.05073129
22	0xbbae71fd	-0.005323647
23	0x3d31c878	0.043404073
24	0x3b60d1ee	0.0034304815
25	0x3ca75fc9	0.020431416
26	0x3d786fa8	0.06065336
27	0x3b81d098	0.003961634
28	0xbcd6f278	-0.026238665
29	0xbd5251da	-0.05134759
30	0x3d126ecc	0.035750195
31	0xbd3f0713	-0.046637606
32	0x3bb6b9ca	0.005576347
33	0x3d70a1fe	0.058748238
34	0x3b9b652c	0.0047422852
35	0x3d494676	0.049139462
36	0xbd658d3b	-0.05604289
37	0xbc5bf224	-0.01342443
38	0xbd74f064	-0.059799567
39	0xbd540862	-0.051765807
40	0xbd3911bb	-0.045182925
41	0xbcda6a1f	-0.02666193
42	0x3d89f923	0.06736972
43	0x3cb900d6	0.022583406
44	0x3ce5d6f3	0.028056597
45	0xbd7acc80	-0.061230183
46	0x3d287d0e	0.041134886
47	0xbcfeca11	-0.031102212
48	0xbd33e589	-0.043920074
49	0x3c534ddd	0.012896982
50	0x3d0139ee	0.031549387
51	0xbc059211	-0.008152501
52	0xbcb3be5a	-0.021941353
53	0x3c0688ae	0.008211298
54	0xbc18e2cf	-0.009331419
55	0xbd538a31	-0.05164546
56	0x3d99e25b	0.07513877
57	0xbcec24d6	-0.028826158
58	0x3c9240a9	0.017853098
59	0xbd35a2c6	-0.044344686
60	0xbd3a1eb3	-0.045439433
61	0xbd5999ce	-0.053125195
62	0xbcaec2c2	-0.021333102
63	0x3cf2b617	0.029627843
64	0x3d507421	0.050892
65	0x3ca093d0	0.019601732
66	0x3caacd6f	0.020849911
67	0xbd09265c	-0.033483848
68	0xbb5f2d15	-0.003405397
69	0xbba6e57f	-0.005093276
70	0xbd28b981	-0.041192535
71	0x3d8f2b06	0.06990628
72	0x3da86502	0.08222391
73	0xbd4d1f73	-0.05007882
74	0x3b8f7be4	0.0043787826
75	0xbc3c4f86	-0.011493569
76	0xbc32858d	-0.010896099
77	0x3d8c49cd	0.06850014
78	0x3cbc3ad4	0.02297727
79	0xba8d81e1	-0.0010796153
80	0xbd5a25ee	-0.05325883
81	0xbcd22a61	-0.025654973
82	0xbd1673c1	-0.036731485
83	0x3da22cd2	0.07918705
84	0xbccf9d45	-0.025343547
85	0x3bb4ec1d	0.005521311
86	0x3cf9c803	0.03049088
87	0x3d10e234	0.035371974
88	0xbd0294de	-0.031880252
89	0x3cb0cc89	0.021581905
90	0xbd418761	-0.047248248
91	0x3d94e177	0.072695665
92	0x3b6eb7d3	0.0036425486
93	0xbbdb613b	-0.0066949404
94	0xbd65750a	-0.05601982
95	0x3d10fb11	0.035395686
96	0xbc682077	-0.0141678965
97	0x3b49a129	0.0030766225
98	0x3dc2eb59	0.09517545
99	0x3ca824fc	0.020525448
100	0xbd2e8c13	-0.042614054
101	0xbc4c3afd	-0.012465236
102	0x3da969a0	0.082720995
103	0xbd5da7b5	-0.054115016
104	0x3d2a8400	0.04162979
105	0xbca6233e	-0.020280477
106	0x384b6d77	4.850092e-05
107	0xbd1f526a	-0.038896956
108	0x3cf7c10f	0.030243425
109	0xbd312493	-0.04324777
110	0x3d7488fc	0.05970095
111	0xbcfa9501	-0.030588629
112	0xbcc03b26	-0.023465704
113	0xbd16aae6	-0.036784075
114	0x3cb707ef	0.02234265
115	0x3c397eb3	0.011321711
116	0xbd8240fa	-0.063600495
117	0xbc5d25ca	-0.013497779
118	0x3d0b03c4	0.033939138
119	0x3cfa4cf9	0.030554282
120	0xbc654c49	-0.013995239
121	0xbd0e70e2	-0.034775622
122	0xbcbac67e	-0.022799727
123	0x3c7fdce2	0.015616627
124	0xbd7ddb0f	-0.06197649
125	0x3da2b805	0.07945255
126	0x3d08b582	0.033376224
127	0xbbf20dda	-0.007386905
128	0x3d6ff88b	0.05858664
129	0x3d887fef	0.066650264
130	0xbba30572	-0.0049750144
131	0x3b6ae859	0.0035844056
132	0xbd90fda5	-0.07079629
133	0x3da26bd6	0.07930724
134	0xbcd851ed	-0.026406253
135	0xbc944d08	-0.018103138
136	0x3dbe267f	0.09284686
137	0x3cbf0583	0.023318058
138	0x3c3be1cb	0.011467407
139	0xbc954b46	-0.01822437
140	0x3d9b958f	0.075968854
141	0x3d185985	0.037194747
142	0x3d249b44	0.040187135
143	0xbd1a97ba	-0.037742354
144	0xbd7969dd	-0.060891975
145	0xbb243aaa	-0.002505938
146	0xbce2158e	-0.027598169
147	0xbd320c52	-0.04346878
148	0xbcd405d4	-0.025881685
149	0xbaf68943	-0.0018809218
150	0xbb5e6394	-0.0033933865
151	0xbc5d9f9b	-0.013526822
152	0x3d9c408f	0.07629501
153	0xbc3c177c	-0.0114802085
154	0x3c87760f	0.016535787
155	0x3d9ff3a2	0.07810141
156	0xbd356a1f	-0.044290658
157	0xb88193d2	-6.178733e-05
158	0x3d7de484	0.061985508
159	0xbcbb00a1	-0.022827448
160	0x3d848d6f	0.06472289
161	0xbd02cc4b	-0.03193311
162	0xbb9fcc4b	-0.0048766485
163	0xbc19b938	-0.0093825385
164	0xbd818bb1	-0.06325472
165	0xbd967963	-0.073473714
166	0x3cc359cc	0.02384653
167	0x3c3d4d68	0.0115541
168	0xbcbeb509	-0.023279684
169	0xbcaf3376	-0.021386843
170	0x3d2ee66e	0.042700224
171	0x3c2cba97	0.010542533
172	0xba199c23	-0.0005859753
173	0xbbeebee8	-0.0072859414
174	0x3d0b62f8	0.03402993
175	0xbd7f8641	-0.062383894
176	0xbd48fcb0	-0.049069107
177	0xbceb8f4b	-0.02875485
178	0x3c2e33fa	0.010632509
179	0xbd2f988d	-0.042870093
180	0xbd7533c0	-0.059863806
181	0xbc25c2e8	-0.01011727
182	0x3c670268	0.014099695
183	0x3ce5c6ea	0.028048951
184	0xbd37b93c	-0.044854388
185	0x3d4b9652	0.049703903
186	0xbb257699	-0.0025247692
187	0x3d60092f	0.05469626
188	0x3d9fa7e4	0.077956945
189	0x3d2600ac	0.040527984
190	0xbceecae1	-0.029149475
191	0x3c78ffaf	0.0151976785
192	0x3cf485ea	0.029849011
193	0xbd890f3a	-0.06692357
194	0xbd817bcd	-0.06322441
195	0x3d572fca	0.05253581
196	0xbc807de5	-0.015685031
197	0xbd0438a5	-0.032280583
198	0x3d9666b3	0.07343807
199	0xbd61c2c6	-0.05511739
200	0xbd7eeda6	-0.062238358
201	0x3d5d21b5	0.053987224
202	0x3d9220ee	0.07135187
203	0x3ca46929	0.020069676
204	0x3d2f6343	0.042819273
205	0xbc80333d	-0.015649432
206	0x3cb59193	0.022164142
207	0xbc122e4a	-0.008922169
208	0x3d76cb39	0.060252402
209	0x3cdea12b	0.02717646
210	0x3bc3a5a1	0.0059706722
211	0x3d485794	0.048911646
212	0xbd1e4048	-0.038635522
213	0xbce15603	-0.027506834
214	0x3c926a75	0.017873028
215	0x3cab4982	0.020909075
216	0xbd14acb9	-0.036297534
217	0xbd02de73	-0.031950425
218	0x3c111821	0.00885585
219	0xbbbc0eb3	-0.005739057
220	0x3d0f73ad	0.035022426
221	0x3d479c78	0.048733205
222	0xbc189d1f	-0.009314804
223	0xba6cbbd6	-0.0009030675
224	0xbd324423	-0.04352201
225	0x3dbc22e5	0.09186343
226	0xbc84fe18	-0.016234443
227	0xbd2b6744	-0.04184653
228	0x3b2ebe38	0.0026663672
229	0x3d11b20f	0.0355702
230	0x3ce23ed8	0.027617857
231	0x3bc94a77	0.00614291
232	0x3b6f5201	0.0036517384
233	0xbc60b8b6	-0.0137159135
234	0xbd1b286d	-0.03788035
235	0x3cbd83bc	0.023134105
236	0xbcc92456	-0.02455346
237	0xbc2b8d8f	-0.010470762
238	0x3d4a3857	0.049370136
239	0x3cd73c41	0.026273848
240	0x3c74e218	0.014946483
241	0xbc112b87	-0.008860475
242	0xbd3ff60f	-0.04686552
243	0x3c3042bf	0.010758101
244	0x3c8f3dd8	0.017485544
245	0xbd02fdc6	-0.0319803
246	0xbd33bbe1	-0.043880347
247	0x3d20d562	0.039265998
248	0x3d2a9fd2	0.041656323
249	0xbd73ec72	-0.059551664
250	0xbcc3f224	-0.023919173
251	0xbd02691f	-0.031838533
252	0xbc3fd528	-0.011708535
253	0x3bbf140a	0.0058312463
254	0xbceb516a	-0.028725345
255	0x3da96799	0.08271713
